best_rnn_model.pt (torch, 102142 bytes, 18 tensors)

embeddings.0.weight f4 [4, 8]
000000 4e 00 e5 3f db 57 c5 3f 20 f5 86 3f 1c 62 02 c0
       1.7890718 1.5417436 1.0543556 -2.0372381
000010 f6 f2 24 3f fb 62 88 bf f8 5d d5 bd c2 d6 db bf
       0.6443323 -1.0655206 -0.10418314 -1.7174914
000020 3f bf 33 bf 87 bc cc 3f 0b 37 d7 be 0b eb be bf
       -0.70213693 1.5995034 -0.42034182 -1.491548
000030 5c 49 30 bf 0b 33 17 bf 7e c3 39 bf 11 a1 37 3f
       -0.6886194 -0.5906226 -0.7256392 0.7173014
000040 c9 6f d4 3f 9e 77 3c be fe 6b 02 bf 7e f8 c8 3e
       1.6596614 -0.18405005 -0.50946033 0.39252084
000050 06 0f 35 bf 57 40 87 3f e5 1c 54 3f 19 bb df 3f
       -0.7072605 1.056651 0.8285659 1.7478973
000060 59 ba a3 3f 2f f1 a5 3f 88 47 1c 3f b0 d8 aa 3f
       1.2791244 1.2964228 0.6104665 1.3347378
000070 ed 2e 6d be 00 0c 2b 3d 79 ce 80 be b0 1f 5c 3f
       -0.23162432 0.04175949 -0.25157526 0.8598585

embeddings.1.weight f4 [6, 8]
000000 90 86 b0 bf f5 1d 5a bf 18 ad 5c be 25 9c da 3f
       -1.3791065 -0.8520196 -0.21550405 1.7078902
000010 0d 32 92 3e 71 0a ee be 27 2d b0 3e 46 9e 4c bf
       0.2855381 -0.4649234 0.34409449 -0.79929006
000020 e6 f5 e0 bf bd 53 95 3f c9 6d 30 bf 8d d2 df be
       -1.7575042 1.166618 -0.6891752 -0.43715325
000030 cf 68 a7 bf 60 c3 14 40 44 78 b3 bf e0 71 de be
       -1.307886 2.3244247 -1.4021077 -0.43446255
000040 61 f6 4d bf 8f d7 49 bf a5 44 fb bc 11 05 c2 3e
       -0.8045407 -0.7884454 -0.03067238 0.3789449
000050 8d 3c bd be 9e 60 8d 3f 4c da 37 bf 83 dc 3c bf
       -0.3696026 1.104511 -0.7181747 -0.73773974
000060 5f 85 c3 bf 75 23 14 3e 3a 92 4c 3d 64 57 42 3f
       -1.5275077 0.14466651 0.04994414 0.759146
000070 02 c0 a6 bd 1c 41 fd 3f 10 60 a6 bf 2f 29 b5 3f
       -0.08142091 1.9785495 -1.2998066 1.4153193
000080 b4 c6 c4 3f df e7 4a 3f 1c e6 07 40 a6 13 d8 3e
       1.5373139 0.7926006 2.1234198 0.4220249
000090 6b 5e a2 3e 99 7f 98 be 45 eb 7e bf 03 00 a7 3f
       0.3171266 -0.2978485 -0.9957774 1.3046879
0000a0 ca 52 30 be 00 17 06 3f 47 ec 67 3d 7d 43 da 3e
       -0.17219082 0.52378845 0.056621816 0.42629614
0000b0 88 33 13 3f 09 48 24 bf a0 35 0d c0 ab 34 40 bf
       0.57500505 -0.64172417 -2.206398 -0.75080365

embeddings.2.weight f4 [6, 8]
000000 ee ab a0 3c e4 da af be 25 71 ab bf d8 c8 1b bf
       0.019613232 -0.34346688 -1.3393904 -0.6085334
000010 bd 2b fe 3e c9 e5 f4 3e fe 41 9d 3f cf 74 a0 3c
       0.49642745 0.47831562 1.2285764 0.019586949
000020 67 20 0b 3f 51 0e 9e be 22 92 5b bf 42 d9 47 3f
       0.5434632 -0.30870298 -0.85769856 0.78065884
000030 24 e1 e2 bf 87 7f 22 bf d6 77 98 3f f6 d7 0f 3f
       -1.7724957 -0.6347584 1.1911571 0.56188905
000040 4d ff 19 c0 e3 39 bd 3e 07 f2 30 3f c4 4c eb bd
       -2.4062073 0.36958227 0.69119304 -0.11489251
000050 77 84 42 3f cf 48 fd 3e a8 fa 94 3f 4e 7b eb be
       0.75983375 0.4946961 1.1638994 -0.45992512
000060 8b a7 9b be b9 33 5c 3f 8d 8b 05 3f e2 e7 84 3e
       -0.30401263 0.8601642 0.5216606 0.25958163
000070 6a ad 8f 3e 5f b4 b4 3f d1 05 e9 bd 66 43 94 be
       0.28061992 1.4117545 -0.113780625 -0.2895767
000080 6a 74 af bf af 21 28 be 7e a6 33 bf 5c 64 c1 3e
       -1.3707402 -0.164191 -0.7017592 0.3777188
000090 06 05 31 3f d1 b6 98 bc 5a 52 a5 be ab cb 0c 3f
       0.6914829 -0.018641861 -0.32289392 0.5499827
0000a0 c1 d6 4f bc cc 9d 76 3e 5a b7 07 3e 46 a5 43 3f
       -0.012685479 0.24083632 0.13253537 0.7642406
0000b0 47 29 8c 3f 30 06 ae 3e c9 4f 38 3f 05 a4 d2 3e
       1.0950097 0.33989096 0.7199674 0.41140762

embeddings.3.weight f4 [6, 8]
000000 00 a2 f1 3f 8a 68 85 3f a7 e3 b1 bf 92 79 8c bf
       1.8877563 1.0422528 -1.3897599 -1.09746
000010 8a 42 ff bd 56 28 d6 3f 6d b9 1f 3f d9 be 19 3f
       -0.12463863 1.673106 0.6239231 0.60056835
000020 5c 2e a4 3f 05 c6 b4 bd 50 49 fa bf 52 de 42 3f
       1.2826648 -0.08826832 -1.9553623 0.76120484
000030 2e 6c a5 be d8 2e 64 3f 3f 86 19 bf 26 72 1b 3f
       -0.32309097 0.8913398 -0.5997047 0.6072105
000040 1e 4e 82 bf 99 c3 7c 3f 9d ae d5 3f 1d 36 bc 3f
       -1.018009 0.9873596 1.6693913 1.4704014
000050 85 89 8d 3e 0f 82 2b be 90 6e 44 bf 0e 46 b2 3d
       0.27643982 -0.16748832 -0.76731205 0.08704768
000060 6c 93 2d 3e fb e3 8f 3f 0e 13 92 be ad 35 e3 3f
       0.16950768 1.1241449 -0.28530163 1.7750756
000070 d4 76 20 c0 8e f6 73 be 3e 47 ac bf 3a ee 72 3f
       -2.5072527 -0.23824522 -1.3459241 0.94894755
000080 76 eb 07 c0 d8 c1 e0 3e 74 11 86 3e 17 2a e9 bd
       -2.1237464 0.4389789 0.2618519 -0.11384981
000090 79 93 0a 3e 1b 15 ff be 66 06 61 bb 4e c3 86 bf
       0.13532819 -0.4982079 -0.003433609 -1.0528352
0000a0 97 13 cd bf ba 2b ad 3f 4e f8 a4 3f de 33 56 3d
       -1.6021603 1.3528969 1.2888277 0.05229556
0000b0 33 ff c5 bf 7d b7 41 3f 72 88 46 3f c3 b2 01 40
       -1.5468506 0.75670606 0.7755195 2.0265357

embeddings.4.weight f4 [21, 8]
000000 4e 68 c5 3d 79 af 2c 3d ce 80 62 bf da 69 8e be
       0.09639035 0.04215953 -0.8847779 -0.27815133
000010 9c 78 75 bf f7 98 d6 bf a0 d5 87 bf 8c a2 21 bf
       -0.9588716 -1.6765431 -1.0612068 -0.6313865
000020 5b b1 0d bf 97 05 c2 bf 21 e3 ef bf c2 ec 3d 3e
       -0.5534875 -1.5157956 -1.8741189 0.18547347
000030 cc cc 6f 3f eb 4b 02 bf 93 38 41 3f dd 92 34 3f
       0.9367187 -0.5089709 0.7547695 0.70536596
000040 7a 66 db 3f c2 71 60 bf 35 4f 82 3f fd 24 8d be
       1.7140648 -0.8767358 1.0180422 -0.27567282
000050 f0 e3 9b bf e9 3d d6 3e 3e b2 e3 3e db 7e a9 3f
       -1.2178936 0.4184411 0.44471925 1.3241838
000060 d0 91 f8 3e b2 41 0a 40 da 29 f4 be 42 75 64 bf
       0.48548746 2.1602597 -0.4768818 -0.8924142
000070 30 8d 29 3e 01 0e 8e 3f 18 c1 a2 3f 46 7b 04 3f
       0.16557765 1.1098024 1.2715178 0.517506
000080 71 21 5f bf 1b c5 7a bf e9 b6 df be 00 4f 0a bf
       -0.871604 -0.9795701 -0.43694237 -0.54026794
000090 5e 5d e6 3d 41 6f fd 3e cb 44 35 be 53 d3 11 c0
       0.11248277 0.49498942 -0.17702024 -2.2785232
0000a0 3d 1f c3 be 08 33 89 3f e0 74 e5 bf 36 3b bd 3f
       -0.3810977 1.0718699 -1.7926292 1.4783695
0000b0 dd b2 a6 3e c9 84 02 bf b9 13 86 3f 20 3a d6 3f
       0.32558337 -0.50983864 1.0474769 1.6736488
0000c0 cc 2e 39 bd 18 c3 d6 3f fe 7d 4a 3e 11 84 83 bf
       -0.045210645 1.6778288 0.19774625 -1.0274678
0000d0 84 a6 23 bf b1 9f 04 3e e4 c8 c1 3e 59 00 fe 3f
       -0.6392596 0.12951542 0.3784858 1.9843856
0000e0 61 73 0b be c0 37 5b bf 45 7c fd bf a5 9e 83 bf
       -0.13618232 -0.8563194 -1.9803549 -1.028279
0000f0 5a 2f c9 3c 2b 61 0d 3e 7e 9c 24 3e 84 48 e1 3e
       0.024558712 0.13806598 0.16075322 0.44000638
000100 35 c9 57 bf d2 59 51 3e 44 21 1d bf 44 13 bb 3e
       -0.8429139 0.2044442 -0.61378884 0.36538136
000110 4f f3 49 bf 1a 91 cf bd a2 14 9f be 9e 42 b2 3f
       -0.78886884 -0.10135098 -0.3107043 1.392658
000120 aa 23 9e 3f 70 0e 2f bf f4 1f 62 3f 2d 57 08 3f
       1.2354634 -0.68381405 0.88330007 0.5325802
000130 c1 bf 1a 3f a5 a5 17 3f bb 45 f2 3e 19 2f 72 3e
       0.60448843 0.5923713 0.47318825 0.23650779
000140 aa 37 10 bf 4e 2c fb 3e 4c dc d0 bf f2 37 dd bf
       -0.56334937 0.4905724 -1.6317229 -1.7282698
000150 a6 28 b9 bf 4d 6e 9b 3e 11 9a 41 bd 7e 60 46 3f
       -1.446553 0.3035759 -0.04726607 0.77490985
000160 29 34 dc bf 9f 07 2e bc 5c b8 55 3f 78 83 13 3e
       -1.7203418 -0.010621934 0.83484435 0.1440562
000170 0e 65 a5 3f 34 3b c0 3e 9e e1 04 c0 25 fb d5 3d
       1.2921464 0.37545168 -2.0762706 0.10448293
000180 0d d8 b1 bf 12 b2 30 3f fd 3e 25 c0 b3 da 4b bd
       -1.3894058 0.69021714 -2.5819695 -0.049769115
000190 0b 27 9a ba 41 3f 3b bf a0 0d d1 3f 81 3d f5 3d
       -0.0011760903 -0.7314339 1.6332283 0.119746216
0001a0 68 2d 9d 3f 06 10 f8 3f d4 6d 33 3f 93 a5 6e 3f
       1.2279482 1.937989 0.7008946 0.93221396
0001b0 7f c9 df 3e 6f a7 8e 3f 2f 48 96 3e 7e ed 46 bd
       0.43708417 1.1144847 0.29351947 -0.048566334
0001c0 15 23 70 3f e1 43 83 bf 9b 66 02 bf 6a a4 dd be
       0.9380353 -1.025509 -0.50937814 -0.432895
0001d0 88 aa a4 be fe c3 c8 bd 11 66 38 bf ef 66 b7 bd
       -0.32161355 -0.098030075 -0.7203074 -0.0895518
0001e0 90 71 f9 3f 22 ac af 3e 0b 3e 7d 3f 49 9d 41 3f
       1.9487782 0.34311014 0.98922795 0.75630623
0001f0 da d2 59 3d 9a 04 2e 3e cd 82 9f 3f d1 d6 4d 3f
       0.0531796 0.16993943 1.2461792 0.8040591
000200 f7 14 8d 3e 56 32 18 bf 69 44 78 3f 44 0c 59 bf
       0.27555057 -0.59451807 0.96979386 -0.8478434
000210 10 f2 ee 3e 15 89 af 3f 5f 83 19 c0 d3 42 98 bf
       0.46669054 1.3713709 -2.3986433 -1.1895393
000220 78 70 4f 3e 58 34 0b c0 9a 14 31 be 8e 4e 88 bf
       0.20257747 -2.1750698 -0.17293015 -1.0648973
000230 46 26 42 bf be 86 8a bd 63 31 9a 3f df d4 7f bf
       -0.7583965 -0.06763981 1.2046322 -0.9993419
000240 34 b3 ef 3e d5 ed 37 bf 2b f3 80 3f 75 7d bf bf
       0.4681641 -0.7184728 1.0074209 -1.4960161
000250 1f c3 00 3f 28 47 a5 3e 67 aa 8a bb 6d 05 e9 3d
       0.5029773 0.3228085 -0.0042317393 0.11377988
000260 7c 00 d0 3e 25 ee 9d 3d 71 97 30 40 40 db 54 bf
       0.4062537 0.07711438 2.7592432 -0.8314705
000270 c4 40 4d 3e 14 a8 b5 bf 6d b5 ec 3e 19 58 d6 3f
       0.20044237 -1.4191918 0.46232167 1.6745635
000280 e6 3f 9d be bd 2a 37 bf 8b fd 9b 3d 56 d0 59 be
       -0.30712813 -0.7154959 0.07616719 -0.2127088
000290 49 f6 10 bf 83 3f cc 3e 7b 4b af 3f e4 f7 80 be
       -0.566258 0.39892206 1.369491 -0.25189126

embeddings.5.weight f4 [16, 8]
000000 dc d1 5e 3f 7d f3 3a bf 24 92 8e 3e 44 3f 86 3e
       0.8703897 -0.73027784 0.2784587 0.26220143
000010 40 d6 c0 3e e5 5b a3 bf dd e2 72 3f 2e 29 a0 bd
       0.3766346 -1.2762419 0.94877416 -0.078203544
000020 83 36 fe 3d 4b 7a 89 bc 8e 7a 02 bd 2a 69 90 bf
       0.12412741 -0.016781947 -0.03185516 -1.1282094
000030 00 e2 c0 3f 25 bf 19 3f b5 eb 7a 3f 59 d2 0a 3f
       1.506897 0.6005729 0.9801591 0.54227215
000040 8d 23 a6 bf 99 9e d1 3f d7 f4 f9 3f 50 4f 14 be
       -1.2979599 1.6376525 1.9527844 -0.1448338
000050 4a 95 00 3f 05 78 f1 be fb 78 98 bf a3 13 1d bf
       0.502278 -0.4716188 -1.191192 -0.6135809
000060 c8 63 c4 bd dd f8 f5 be 8e e4 85 3f c5 eb a5 3e
       -0.09589344 -0.4804143 1.0460374 0.3240644
000070 98 ff f4 bf 63 5b ce 3e fb 8d 69 3f 9f ad 0d 40
       -1.9140501 0.40304098 0.9123227 2.213722
000080 35 a6 8f bf 55 99 55 3f 99 26 c6 bf c4 5a 50 bf
       -1.1222597 0.8343709 -1.5480529 -0.813885
000090 60 d1 9b be f0 d0 89 3f fb 9b bd 3f 50 07 f8 bd
       -0.30433178 1.0766888 1.4813226 -0.1211077
0000a0 3d 95 b9 3f 88 19 b1 bf be 1e ae be fb 48 a0 bd
       1.4498669 -1.3835917 -0.3400783 -0.0782642
0000b0 07 8d 98 3e b1 bd d1 3e 5a 09 85 3e 82 f4 49 3f
       0.29795095 0.40965036 0.25983697 0.78888714
0000c0 14 0d 7a be 44 05 13 bf 68 bc fe 3e bf 47 d6 3e
       -0.24419051 -0.5742991 0.49753118 0.41851613
0000d0 12 89 29 c0 31 d0 13 bf 97 ac ad 3f 9d 86 80 3e
       -2.648991 -0.5773955 1.3568295 0.25102702
0000e0 9f 26 2d 3f 36 dd a8 bf 4c 76 5b 3f ec 7b 49 3f
       0.67637056 -1.3192508 0.8572738 0.78704715
0000f0 7d cc b2 3e c6 53 b4 3f ec 84 b3 3f 6c b3 32 bf
       0.34921637 1.4088066 1.402494 -0.69805026
000100 7f c0 1c bf 6b 87 31 3e 70 71 3b 3f 36 39 a4 3c
       -0.61231226 0.17336814 0.73219967 0.020046812
000110 2d 07 97 be 10 04 bf bf b5 e8 9f bf 52 9c 86 bf
       -0.29497662 -1.4923115 -1.2492892 -1.0516455
000120 dc e8 fc 3f 5b b6 9c bf b9 e4 28 3f 98 26 4d be
       1.9758563 -1.224315 0.65974003 -0.20034254
000130 99 ec 65 3f 24 71 97 3b 08 c9 59 3f 8a e5 a6 be
       0.89814144 0.0046216417 0.85072374 -0.32597
000140 25 b4 19 3f c9 1b c7 3f 5f 41 80 bf 98 ef 0d 40
       0.60040504 1.5555354 -1.001995 2.2177486
000150 cc a1 16 40 cd 76 00 bf fd 72 e5 be 86 64 d0 bf
       2.3536253 -0.50181276 -0.44814292 -1.6280677
000160 5f ee 04 bf 78 ae a9 3f a0 53 4e 3e 0c 46 84 3b
       -0.51926225 1.3256369 0.20149088 0.0040366706
000170 03 6c ca 3f 8b da 05 bf ff 9f c1 be f6 98 aa bf
       1.5814213 -0.52286595 -0.3781738 -1.332793
000180 92 1b ec be 7a d9 1f 3e e4 37 9f 3f 1c 44 57 3e
       -0.46114784 0.15610304 1.2438931 0.21022075
000190 67 95 92 3f 80 99 b1 3f 04 10 ab 3f a0 bf 5c 3e
       1.1451844 1.387497 1.3364263 0.21557474
0001a0 27 b2 6b bf b0 0a 25 40 e7 07 31 3f 91 55 2d 3f
       -0.92068714 2.5787773 0.69152683 0.6770869
0001b0 68 40 ba bd 9d 06 11 bf 35 3f 08 bf 97 44 01 bf
       -0.09094316 -0.56650716 -0.53221446 -0.50495285
0001c0 7d 11 06 3e 98 32 bf be 01 34 16 3e e5 ad c7 bf
       0.13092609 -0.37343287 0.14668275 -1.5599943
0001d0 18 0d 79 3e 9a 3b 61 3e c9 1c 8b 3d 88 f9 94 bf
       0.24321401 0.21995392 0.067926 -1.1638651
0001e0 c2 10 03 c0 4d 13 80 3f 99 b3 2f 3f d0 3d 2f bf
       -2.0478978 1.000589 0.6863342 -0.68453693
0001f0 c2 9e 36 3f f1 a3 07 3f 49 fe 68 bf 05 b2 2f 3f
       0.71335995 0.5298453 -0.9101301 0.6863101

embeddings.6.weight f4 [6, 8]
000000 b4 ba 6e bf d6 56 35 40 95 44 83 bf 29 57 ca be
       -0.93253636 2.833425 -1.0255305 -0.39519623
000010 b7 6a 81 bf 5d 8a ba bd d1 b4 69 bf fc bc 4a 3f
       -1.0110692 -0.09108422 -0.9129153 0.7919462
000020 7f b4 17 c0 ef 04 1c bf 7b 6b 8d 3f 75 e5 c0 3f
       -2.3703916 -0.6094503 1.1048425 1.5070025
000030 52 4c 6c 3f 87 f9 9f 3f 2e 88 1d bf b6 a4 4f bf
       0.92303956 1.2498025 -0.6153592 -0.81110704
000040 24 9b 94 bf c8 79 96 3f 91 e6 3f 3e c0 9d 18 3f
       -1.1609845 1.1755915 0.18740298 0.5961571
000050 58 e3 6c 3f b8 3e 7d 3f 99 87 68 3f 3d 4a 93 be
       0.925344 0.98923826 0.90831906 -0.28767577
000060 c1 b2 e6 bf 14 2e 91 3f 2b 69 04 3f 42 3f c9 3e
       -1.8023301 1.1342187 0.51722974 0.39306074
000070 99 f1 ca be 9b 1a 58 3e 6b f5 6a bf 41 83 2e 3d
       -0.3963745 0.21103899 -0.9178073 0.042605642
000080 00 99 61 bf d9 35 d0 bf d0 b4 33 bf 71 d5 c0 bd
       -0.88124084 -1.6266433 -0.7019777 -0.09415711
000090 ba c0 e4 bf 56 21 cb 3e 40 30 41 3f a4 f8 a6 bf
       -1.7871315 0.3967387 0.7546425 -1.3044629
0000a0 4c dd 2c bf 3b 76 4f bf 30 3d 55 bf d4 31 ea 3f
       -0.6752517 -0.8103978 -0.8329649 1.8296456
0000b0 56 23 47 3f 67 06 6c bd ce 97 a8 bf ab fb 21 3e
       0.77788293 -0.057623293 -1.3171327 0.1581866

embeddings.7.weight f4 [6, 8]
000000 04 f3 7f 3e 68 b4 96 bf b1 65 f5 3d 6b 72 d2 3f
       0.24995047 -1.1773806 0.11982287 1.6441168
000010 1c fd 00 3f 8c b5 08 bf d2 fc 3c bf a4 3d d0 bd
       0.50386214 -0.5340202 -0.73823273 -0.10168007
000020 31 f3 82 3c a8 62 d0 be 52 41 1d bf d8 b7 bb bf
       0.015985103 -0.4070027 -0.61427796 -1.466548
000030 9d 6d d4 be 14 4f 72 3f 10 4f 32 3f 27 0b b2 bf
       -0.41489878 0.94651914 0.6965189 -1.3909653
000040 ff b3 03 3f d1 5a cb 3f 30 4b 7b bf 3e be 08 3f
       0.5144653 1.588709 -0.981616 0.53415287
000050 ac 81 6f 3f 8a da ff 3e 2c 90 bf 3f 7e 1d b9 3b
       0.9355724 0.4997142 1.4965873 0.0056492677
000060 9b 9d 61 bf d6 bc 25 be 4a 9f 08 be ce 95 9e 3e
       -0.8813111 -0.16185316 -0.13342014 0.30973667
000070 ec 16 a4 3f 26 db a1 3f a8 bb f7 3e db af 5d 40
       1.2819495 1.2645004 0.48385358 3.4638584
000080 7a 2b 56 be 69 87 7c 3d f1 91 85 3b f6 5c 6f 3c
       -0.20915022 0.061652575 0.0040762355 0.014609566
000090 1e 6b 95 3e f1 a1 b7 3f e9 0d 07 c0 d2 1b 67 3f
       0.29183286 1.4346296 -2.110224 0.90276825
0000a0 b4 d8 66 3e c2 04 8f be 69 91 2b 3f ec 4c f3 3d
       0.22543603 -0.27933317 0.67018753 0.11879906
0000b0 27 a8 1c bf 57 45 1a 3f fc 0f 56 bf 05 a1 aa be
       -0.6119408 0.60262054 -0.8361814 -0.33325973

embeddings.8.weight f4 [9, 8]
000000 0c b9 77 3f f0 67 b3 bf e2 f8 28 3c f9 45 6d 3f
       0.96766734 -1.4016094 0.010313245 0.92684895
000010 42 25 97 bf ba b5 ac 3f 87 a2 5c 3f ec a6 0b c0
       -1.1808245 1.3492959 0.861855 -2.182063
000020 5d 86 70 3f 75 4b 35 be 14 81 1e 3f 48 9a 28 3f
       0.9395502 -0.17704566 0.6191571 0.65860415
000030 fa 97 ab 3e 61 18 e2 3e 1e 8a 9b bf 20 3c 60 bf
       0.33514386 0.44159225 -1.2151525 -0.87591743
000040 14 7b ef 3e 8d 4f dd 3f 02 28 11 3e 6a bc a0 3e
       0.4677359 1.7289902 0.14175418 0.3139375
000050 bc eb f8 3e 49 9e d4 3e 6b d3 a1 be 3d fc 79 bf
       0.4861735 0.41527012 -0.31606612 -0.9765051
000060 74 47 0c bf 1f 72 00 be 96 46 40 be 77 c6 5d 3f
       -0.5479653 -0.12543534 -0.18776926 0.8663096
000070 c5 1a 5b 3f 12 14 f7 bd c8 1e 25 bf 6f ea 2a bd
       0.8558772 -0.12064375 -0.64500093 -0.04172748
000080 28 8e 9b bf a8 86 ac 3d d0 e9 62 bf ff 89 63 bf
       -1.2152758 0.08424121 -0.8863802 -0.8888244
000090 5c 49 80 3f 4c 80 2e bf 50 94 8b 3e 43 35 d1 bd
       1.0022388 -0.68164515 0.2726159 -0.10215237
0000a0 fd ee e8 3d 00 9b c8 3e 9d b6 9b 3e 53 b7 2e c0
       0.113737084 0.39180756 0.3041276 -2.7299392
0000b0 df 0b a9 3d ff 8f 6a bf 7f 02 c8 3e db 21 2b 3f
       0.08254217 -0.9162597 0.39064404 0.66848534
0000c0 88 b2 9d bf 29 f4 05 40 d2 07 5d 3f 42 b1 a8 3e
       -1.2320108 2.0930274 0.8634006 0.32947737
0000d0 5e bd ae 3e 63 10 62 bd fa 4a 5a be db f9 49 bf
       0.3412885 -0.05519141 -0.21317664 -0.78896874
0000e0 11 d1 03 bf 2c ab 18 bf e1 6d 1b be 40 61 04 c0
       -0.51490885 -0.5963619 -0.15178634 -2.0684357
0000f0 2c 46 d0 3c 35 a2 95 3f 20 a8 59 be c1 1b 4d be
       0.025424086 1.1690127 -0.21255541 -0.20030119
000100 7b 20 74 bf 5e 62 bd bd bc 21 82 bf 5b 84 fb bb
       -0.9536206 -0.09247278 -1.0166545 -0.00767569
000110 1f aa 04 bf 43 ec 56 3f 80 b5 6f 3d 27 89 d5 bf
       -0.51822084 0.83954257 0.0585227 -1.668248

numeric_proj.weight f4 [8, 11]
000000 cc 5d 77 3e af 48 3d 3e aa 17 db be d9 63 d7 3e
       0.24156874 0.18484758 -0.42791492 0.42068365
000010 99 50 57 bd 8f 84 19 3c 51 1b 4d be 3c 53 d7 3c
       -0.0525671 0.009369983 -0.20029952 0.026284806
000020 7d f3 92 3e 72 67 29 3d c9 79 c0 be ed 14 1f 3e
       0.28701392 0.04135842 -0.37592915 0.15535326
000030 f8 ec 01 be f6 6e f5 3e a5 26 e2 be 85 00 e2 bd
       -0.12688053 0.4793622 -0.44170108 -0.11035255
000040 53 bb b4 be 57 f0 38 be ee f2 07 3d 35 dc 69 3e
       -0.35299167 -0.18060432 0.03319066 0.22837909
000050 50 07 6b 3d f1 13 fc 3e 90 a5 f4 3d 13 85 0b 3e
       0.05738002 0.49233964 0.11945641 0.13624983
000060 d8 6b db 3e 47 61 9c 3d 9d 72 47 be fe 10 5f 3e
       0.42855716 0.07635742 -0.19477315 0.21783826
000070 a0 78 fc 3d 30 28 4d be e2 20 50 be 35 c5 80 be
       0.12327695 -0.20034862 -0.20325044 -0.25150457
000080 65 ab 82 3e 9d f0 46 be f4 6b bf 3d 3c 76 9a 3e
       0.2552139 -0.19427724 0.09346762 0.3016833
000090 d3 27 ea be 61 c2 8b 3d ac 38 d5 bd 45 2a 6e 3d
       -0.45733508 0.06824184 -0.104112 0.05814578
0000a0 f0 4f bf 3d 47 38 c2 be 12 dd 8a 3e 3d dd e7 3e
       0.09341419 -0.3793356 0.27121788 0.4528598
0000b0 14 b1 48 3d 85 77 82 be 65 e5 a3 be 81 c1 e1 3d
       0.048997 -0.2548181 -0.32010952 0.11023236
0000c0 c7 53 8f bd 00 7e 70 3e 3f a2 32 3e a2 7b 9b 3e
       -0.06998401 0.23485565 0.17444704 0.30367762
0000d0 e3 00 45 bd a2 2c b6 3d 63 4d c5 bd e5 d4 96 be
       -0.04809655 0.08895232 -0.09633901 -0.294593
0000e0 8b ac 81 be 2e cf b6 be 31 68 cb 3e 39 8f 81 be
       -0.25326952 -0.3570494 0.3972793 -0.25304583
0000f0 6d 87 3d be 0e 2d 7c 3e 2f cb 75 3e 40 90 a6 3e
       -0.18508692 0.24626562 0.2400329 0.3253193
000100 31 a1 62 be 1e 7c d4 be 21 50 d9 3d 5b c8 98 3e
       -0.22131802 -0.41500944 0.106109865 0.2984036
000110 8e de b0 bb 1b 12 61 3e e6 78 f4 3d 3e 4c b3 3e
       -0.0053976243 0.21979563 0.11937122 0.35019106
000120 85 a6 05 be 9d 3d 95 bd c0 c1 8c 3e 2e be 4d be
       -0.13051803 -0.072871424 0.2749157 -0.20092079
000130 c7 1a b0 be 65 7c 8d 3e ef 86 80 3d c8 23 9e 3e
       -0.3439543 0.27633968 0.062757365 0.30886674
000140 89 c9 a1 be 3b 1a 88 bc d9 de 4e 3e d6 82 82 be
       -0.31599072 -0.01661407 0.20202197 -0.25490445
000150 5e 8e 92 bd f7 44 8e 3d 27 74 54 be 4e b9 fe 3e
       -0.07156061 0.06946748 -0.20747434 0.4975075

numeric_proj.bias f4 [8]
000000 ac 08 1d be 8c 72 84 bd 55 d8 9e bd 7a 1c 4f be
       -0.1533534 -0.064671606 -0.07756106 -0.20225707
000010 47 d4 9e be bc 75 38 3e a9 bb aa 3d be a5 90 be
       -0.3102133 0.18013662 0.083365746 -0.2825145

lstm.weight_ih_l0 f4 [256, 8]
000000 4d 10 f9 bd 62 1e ee 3d f7 49 5a 3e 3f bc 84 bd
       -0.12161312 0.11626889 0.21317278 -0.064812176
000010 61 42 b2 bc bf 10 bc bd de ad fb 3d dc cf 1f be
       -0.021760168 -0.091828816 0.12289022 -0.15606636
000020 87 f5 30 be 21 98 4d 3d f4 18 54 bc 46 43 b7 3d
       -0.17281161 0.05019391 -0.012945402 0.08948378
000030 bd de 04 be 25 87 87 3c a1 e1 10 bd 32 b4 69 3e
       -0.12975593 0.016543934 -0.035371426 0.22822645
000040 de 5d e4 bd 63 27 76 bc d2 9b 0a 3e c9 2b 43 3e
       -0.11150716 -0.015024039 0.13536003 0.19059671
000050 cc 7d 67 be 7b 12 28 3d 6a b9 44 bd 1a 87 05 3e
       -0.22606581 0.04103325 -0.048028387 0.13039818
000060 18 f1 90 bd 5a 14 b6 bd 73 fa 29 3e b6 6a 02 bd
       -0.07077235 -0.088906005 0.16599445 -0.03184005
000070 a5 9c 0d be 32 16 35 3a 4a d9 dc bd 72 30 41 3e
       -0.13829286 0.00069079094 -0.10783632 0.18866137
000080 0d 30 1b be c9 77 20 3e c5 90 c3 bd 13 8c 4f 3e
       -0.15155049 0.15670694 -0.09549097 0.20268278
000090 51 9d 9e bd 30 2e 10 be e7 83 a6 bd dd 6f 66 3e
       -0.077448495 -0.14080119 -0.08130627 0.2250361
0000a0 4a f3 b7 3d 14 0b 30 bd be 9e cc 3c fe 00 9d 3d
       0.089819506 -0.042979315 0.024978038 0.07666205
0000b0 05 27 8f 3c 28 06 fd 3c 88 57 ac 3d 3e e2 48 3c
       0.01747466 0.030886725 0.08415133 0.012260972
0000c0 06 9f 29 3b fd 38 0c 3e 17 09 66 bc 75 29 63 3e
       0.002588214 0.13693614 -0.014040253 0.22183783
0000d0 42 ba c3 bd c2 89 02 3e 8a 2b 19 be b8 19 4c 3d
       -0.0955701 0.12747863 -0.14958015 0.049829215
0000e0 59 63 20 bd 6e 86 20 3c ea 09 1e 3e cb 3b c7 bd
       -0.039157245 0.009797676 0.1543347 -0.097282015
0000f0 c4 eb 98 3d c7 ff e7 bd 1e 4b 0f 3e c3 c1 27 bd
       0.07466844 -0.113280825 0.13993499 -0.04095627
000100 c3 04 cc bd bd fe dd bd 6b 2d 32 be 29 32 64 3d
       -0.09961846 -0.10839603 -0.17400138 0.0557119
000110 3f a9 84 bd 58 9d 9a 3d 05 e0 80 3c 59 f4 ac bd
       -0.06477594 0.07549542 0.01573182 -0.08445043
000120 f5 1b d5 3c 88 c7 12 be 37 1a 3e bc 04 09 e0 bd
       0.026014308 -0.14333928 -0.01160293 -0.109392196
000130 b7 a7 0b 3c 08 16 06 3d ce c3 94 bc 2b 1c 3c bd
       0.008523873 0.032735854 -0.018159773 -0.0459253
000140 91 bb 8e 3c 69 bc 22 3e 74 29 de 3b 0a f5 95 3d
       0.017423423 0.15892185 0.006779844 0.07322128
000150 5d de 02 be b8 5f 26 3e 8c 1b 10 be a2 49 7f 3d
       -0.12780137 0.16247451 -0.14073008 0.06232608
000160 35 95 d1 3d 96 3f 9c bc 07 9a 4d 3d 78 c1 b1 3d
       0.10233537 -0.019073289 0.05019572 0.08679479
000170 09 fc 41 3c fb 3a 13 3c 6c 4a ec 3d 06 84 bf bd
       0.011839875 0.00898623 0.11537632 -0.09351353
000180 22 73 a5 bd 6d 4b 14 3e da 72 4e 3e 73 5c 89 3d
       -0.080786005 0.14481898 0.20161 0.067070864
000190 fa 7a 2f bd d4 f8 e6 bd ca 83 ed bc f5 06 53 3e
       -0.04284189 -0.11277929 -0.028993506 0.20608123
0001a0 c0 d1 ba 39 19 e6 8f 3c e5 42 02 bd 2b b1 34 bd
       0.0003563296 0.017565774 -0.031802077 -0.044114273
0001b0 ed 26 97 bc b8 2f 22 3d b0 5c 06 3e c6 12 e4 bc
       -0.018451178 0.03959629 0.13121295 -0.027840983
0001c0 2a 28 07 3d f6 f6 2b 3d 4b 23 63 3d 82 a3 46 3d
       0.032997288 0.041983567 0.05545358 0.048495777
0001d0 74 e4 97 3d f1 57 61 3d 27 42 19 3e f8 a5 ad bd
       0.07416621 0.055015508 0.14966641 -0.08478922
0001e0 78 7c 16 be 28 0a c4 3c d2 7a 2e bd 05 b1 33 bd
       -0.14695919 0.023930624 -0.0425976 -0.04386999
0001f0 09 ef 52 bd f0 0f ca 3d 19 b2 49 3d 85 70 17 3d
       -0.051497493 0.09866321 0.049242113 0.03697254
000200 e5 9e ce bd 75 65 38 3d 24 89 8f bd b1 19 02 3c
       -0.100889005 0.045018632 -0.070085794 0.007940696
000210 93 ef 3a 3d 07 a3 4c 3b 29 08 0a 3d c9 60 e0 3d
       0.045638632 0.0031225102 0.03369919 0.1095596
000220 a6 96 4a bc 5a 95 ea 3d fa bf 23 be cf 71 0a 3d
       -0.012365019 0.11454268 -0.15991202 0.033799943
000230 17 f2 c8 3d 51 04 e5 bd ea 9e 19 be 25 30 44 3e
       0.098118 -0.11182464 -0.15002027 0.1915899
000240 31 c3 43 3d c8 3c a6 3d e9 87 47 3e e7 8b 3c 3d
       0.04779357 0.08117062 0.1948544 0.04603186
000250 c8 25 76 bd f9 0b f6 3d 50 6d ae bd 41 5a a5 3c
       -0.060094625 0.12014002 -0.085169435 0.020184638
000260 bd 51 d9 bd c8 0a 9a 3d b1 4d 94 bd 7c d0 3c 3d
       -0.106112935 0.075215876 -0.07241381 0.046097264
000270 dc d4 45 3e 77 64 ef 3a a7 97 c1 bd f1 51 d7 3d
       0.1931948 0.0018264194 -0.094527535 0.10513676
000280 36 dd 0b be 4d f7 62 3d 3c f7 4d 3e a4 72 e1 3d
       -0.13658604 0.055411626 0.20113844 0.11008194
000290 14 70 fe bd 45 cd ee bd 0f 70 3b bd ea 31 2f 3d
       -0.12423721 -0.11660246 -0.045761164 0.04277221
0002a0 bc 00 45 3c d6 56 1b 3d 45 0a c9 3d 5f b3 10 be
       0.012024101 0.03792461 0.09816412 -0.14130925
0002b0 fe f8 41 bd 46 0a 82 bd fc 27 46 3d fd 67 9e bd
       -0.047356598 -0.06349616 0.048377976 -0.07734678
0002c0 59 1f 3d 3c 9f a7 91 3c 0a 96 23 be 37 f8 15 be
       0.011543118 0.017780123 -0.15975204 -0.14645468
0002d0 67 81 af bd 2c 41 bd 3d f6 e1 a7 bd 90 3c eb bd
       -0.085696034 0.09240946 -0.081973955 -0.11486161
0002e0 9b cf 0f 3e e6 90 59 3d 3e c8 48 3e 86 29 5e be
       0.14044039 0.0531167 0.19607636 -0.21695527
0002f0 08 64 b0 3c c9 32 95 bd 3d 86 89 3e 65 f2 07 be
       0.021532074 -0.07285077 0.26860228 -0.1327606
000300 08 21 81 bd b9 eb 3e bd ac 78 1d be 9b 5e 69 bd
       -0.06305128 -0.04661152 -0.15378064 -0.05697499
000310 5a a4 42 bc 39 5e 3e 3e 8e c0 20 3c ce 0b 4c 3c
       -0.011880005 0.1859063 0.009811534 0.012453986
000320 69 69 ad bc f6 62 ae bd 0d c5 f7 3d 62 d0 8a bd
       -0.021168428 -0.08514969 0.12098131 -0.06778027
000330 f4 bd 1e bb 09 7b 90 3b 23 ba 0b 3e 67 d2 db bd
       -0.0024222108 0.004409198 0.13645224 -0.107334904
000340 96 b7 fa bd 1a e2 30 3e e4 06 8e 3d b5 3f 78 3e
       -0.122420475 0.17273751 0.06934908 0.24243052
000350 f8 ec 83 3d f0 fb 00 bd 55 08 0e bb c0 f7 4f 3e
       0.064416826 -0.031490266 -0.0021672447 0.20309353
000360 74 c2 0f be d8 ef 4a bd c5 ba 4b bd 9d 79 93 3c
       -0.14039022 -0.04954514 -0.049738664 0.018002326
000370 48 93 fd 3d c3 47 e1 3c 3e 7d 96 bc 5d 02 26 3d
       0.12381607 0.027500039 -0.018370267 0.040529598
000380 37 a2 b1 bd 0a a3 99 bd 56 06 5f 3e 12 e7 c5 bd
       -0.08673518 -0.075018 0.2177976 -0.09663214
000390 08 1f ae 3d da 94 e6 bc 5c 4b f3 3c 5b ac 84 bd
       0.085020125 -0.02814715 0.02969902 -0.06478187
0003a0 f1 b7 d1 bc 67 01 aa bc 57 f8 05 be cd ea b4 3c
       -0.025600405 -0.020752622 -0.13083015 0.022084618
0003b0 5c 5a 0c be db 15 e8 3c ad 70 ad bd c0 16 9d bd
       -0.13706344 0.028330734 -0.08468757 -0.07670355
0003c0 75 01 35 be b0 d6 49 3d 92 1b ed 3d b6 1f 10 bd
       -0.17676337 0.049277008 0.11577524 -0.035186492
0003d0 f4 3f f5 bd 8e b2 a4 3c e2 e9 7d bd 52 47 db 3d
       -0.11975089 0.020104673 -0.061990626 0.10706963
0003e0 d0 52 2f 3c 2e b7 04 3d 88 71 15 3c 99 75 11 3d
       0.010700896 0.032401256 0.009121306 0.03551254
0003f0 1a e0 7e be 8e e2 bb 3c 54 22 86 bd a9 bc 34 be
       -0.24890175 0.022935178 -0.06549516 -0.17650093

lstm.weight_hh_l0 f4 [256, 64]
000000 00 71 6f bd 99 93 de 3d ae fb 2a be 0a 2a 8d 3e
       -0.058457375 0.10867996 -0.1669757 0.27571136
000010 bc 34 e2 bd bf 3f 30 be 24 4e 29 3e 0f 5d 03 bb
       -0.110452145 -0.17211817 0.16533715 -0.002004448
000020 35 3d 30 bd 91 fa cc bd a6 e3 20 be 72 14 2e 3e
       -0.04302712 -0.10008729 -0.15711841 0.16999987
000030 47 af 46 3d c9 5d 3b be 25 53 ae 3d 69 90 bf bd
       0.048507 -0.18297495 0.08511952 -0.09353716
000040 4b 21 16 3d 2b 7b 83 3e d0 85 6f be eb f9 3b 3e
       0.036652844 0.25679907 -0.23390889 0.18357055
000050 31 0b 71 3e 4d 2b 2c be 73 6e 96 be de d4 1c be
       0.23539425 -0.16813393 -0.2938114 -0.15315577
000060 fe ad 8b 3e b1 24 46 3e e4 a6 b4 bd 28 5e e2 bd
       0.27281183 0.19349934 -0.08820894 -0.11053115
000070 62 b8 8b bd 37 b2 7b bd b0 89 82 bd 56 4c 29 be
       -0.068222776 -0.061449256 -0.06373918 -0.16533026
000080 a1 ec 2a be f8 5f a1 bd 9f d5 85 be 0a 5c f0 bc
       -0.1669183 -0.07879633 -0.26139542 -0.029340763
000090 01 79 03 3e ea a6 12 be 13 b4 e2 3d 86 b2 11 be
       0.12839128 -0.14321485 0.11069503 -0.14228258
0000a0 9d 50 00 be 91 6a 78 be 67 72 01 3e 88 aa 41 be
       -0.12530752 -0.24259402 0.12641297 -0.18912709
0000b0 81 b7 36 be cc 3f a2 bd 53 60 1f 3d 44 98 5c 3e
       -0.17843439 -0.079223245 0.03891022 0.2154246
0000c0 12 8e 66 be 68 01 7b 3e 4f 95 5b 3e b9 46 28 be
       -0.22515133 0.24512255 0.21443675 -0.16433229
0000d0 79 23 80 3e a2 bd 90 be f9 e7 06 be 7f ac a3 3e
       0.25027063 -0.28269678 -0.13174428 0.31967542
0000e0 f9 3f 0f 3d 6c 9b 0c be 0f f9 19 be ff 5c 48 3e
       0.03497312 -0.13731164 -0.15036415 0.19566725
0000f0 4f 23 7a bd f0 e7 17 3e 8c cd 04 3d b2 2c c2 3d
       -0.06106883 0.14834571 0.032422587 0.09481181
000100 7c 7b d1 bd f9 ee f8 bc 6a 23 f2 bd 0f f7 20 bd
       -0.10228631 -0.030387389 -0.11823161 -0.039298113
000110 56 b2 01 be 86 c5 d8 3d a9 17 35 3d f6 4e a2 bd
       -0.12665686 0.105845496 0.044212017 -0.07925217
000120 9f ab 31 3b 01 51 9d 3c 12 80 ae bd 5b 5f 0e 3d
       0.002711035 0.019203665 -0.08520521 0.034758907
000130 94 4a 5c bd 09 10 6f bd 4c 5e 4a 3c d7 d6 87 3c
       -0.05378206 -0.0583649 0.012351584 0.016581936
000140 cd b7 09 3e cb 33 ea 3d dc 10 7d 3d c5 35 2d 3d
       0.1344902 0.1143566 0.061783656 0.042287607
000150 93 54 11 bc 69 32 2b bd 36 7f 10 be 84 a9 7d bc
       -0.008870262 -0.04179612 -0.14111027 -0.01548231
000160 ac 5e 8d 3c 14 d9 5f 3c 61 0f 22 be ca 80 29 ba
       0.017257057 0.013662595 -0.15826179 -0.00064660294
000170 22 67 83 3d 71 5a e4 3d 0b b8 c8 bd 0b c4 02 bd
       0.064161554 0.11150063 -0.098007284 -0.031925242
000180 b0 0e 1f bd cd f1 09 be b7 dc f9 bd 0c c5 bb 3c
       -0.038832366 -0.13471146 -0.12200301 0.022921108
000190 7e dc c1 bc bc 6b 48 3d 53 cd 73 3d 89 04 e6 3a
       -0.02366471 0.04893087 0.059521984 0.0017548959
0001a0 0f 86 8e 3d f7 a9 9f 3c 2e 20 cc 3d 48 5f 75 3c
       0.069591634 0.019490225 0.09967075 0.01497633
0001b0 49 b8 ce bd 65 b0 23 bd ae b6 fc bc 74 ee f2 3d
       -0.10093743 -0.039963145 -0.030848827 0.118618876
0001c0 ae 21 3c 3d ae 19 0d 3e a4 9f 69 38 92 bd 58 bd
       0.045930557 0.13779327 5.5700206e-05 -0.052915163
0001d0 da 57 19 bd cc d6 b8 3c 7f c4 e2 bd 5b a8 39 3c
       -0.037437297 0.02256336 -0.11072635 0.011331643
0001e0 5f 1e 0e 3e 6b 3f 9b bc a4 06 bc bd 54 39 d7 bc
       0.13878773 -0.018951138 -0.09180954 -0.026272453
0001f0 f5 60 f7 bd 44 89 0d 3e ca a7 19 be b0 9b ed 3d
       -0.1207904 0.13821894 -0.15005413 0.11601961
000200 bc dd b2 bd d3 59 07 3e 6e b6 2e 3d 4c ad 8a 3e
       -0.08733699 0.13217859 0.042654447 0.2708534
000210 0f 59 90 bd a4 a4 f5 3d 2e 23 2c 3e f9 6a 6e 3c
       -0.070482366 0.11994293 0.16810295 0.014551871
000220 db b6 a1 3e 55 d1 82 bd f9 de 5b be bc b2 85 3e
       0.3158482 -0.06387583 -0.21471776 0.26112926
000230 a4 72 cb bd 8f bd 6d be d2 ac 16 be 86 e3 e7 3d
       -0.09933975 -0.23216842 -0.14714363 0.113226935
000240 49 10 25 3e 8b 68 29 3d 7b 47 8b bd d0 fe 8e 3e
       0.16119494 0.041359466 -0.06800743 0.27928782
000250 8e 8a 03 3e 0e c7 39 be ba 41 4d be fd 31 a1 be
       0.12845823 -0.1814234 -0.20044604 -0.3148345
000260 12 72 96 3d 63 5d 2d 3e dc eb 91 bd cf 31 92 be
       0.07345976 0.16930155 -0.07125065 -0.28553626
000270 f5 bd 32 bd ec d6 bf 3d a4 bc 87 be 12 ea 5a be
       -0.04363819 0.09367165 -0.2651111 -0.21378353
000280 33 36 46 be f2 ed 12 be 48 d1 80 bd c5 54 b0 bd
       -0.19356613 -0.14348581 -0.06289917 -0.086099185
000290 86 a5 71 3e 1e 58 99 bd 1b 84 29 3e 00 e1 d3 bd
       0.23598298 -0.0748751 0.165543 -0.1034565
0002a0 07 fa 4c be 44 14 b4 bd 6c 09 45 3e 54 0c 4a be
       -0.20017253 -0.08792928 0.19241875 -0.19731265
0002b0 a7 44 1f be 65 63 2a 3c bb 65 1e be e2 b5 2f 3e
       -0.15553533 0.010399674 -0.15468495 0.17159227
0002c0 54 f5 ff bd 4f e9 a6 3d 21 f9 40 3e 98 c4 95 bd
       -0.124979645 0.08149969 0.18845035 -0.07312888
0002d0 13 7f 84 3d 5e 70 d5 bd ba c0 87 be 57 69 5c 3e
       0.0646955 -0.10421823 -0.26514226 0.21524559
0002e0 b9 f3 1e 3e 33 83 5d bd 10 f0 19 bd 52 d6 a0 3d
       0.1552266 -0.0540802 -0.037582457 0.07853378
0002f0 b5 eb ea bd 88 84 f3 3d 8e d5 42 be 07 33 91 3e
       -0.11470739 0.11890513 -0.19026777 0.28359243
000300 18 b3 db bd 75 14 35 bd 47 27 d1 bd b1 e3 0b 3e
       -0.10727519 -0.044208962 -0.1021257 0.13661076
000310 cd f5 ef bc 27 23 e5 3d b3 cf 76 3d 1d 6a df bd
       -0.029292012 0.111883454 0.06025667 -0.109089114
000320 be 4f 0b 3d 3c fe af 3d 82 d9 fe 3c 0f 79 ab 3d
       0.034011595 0.08593413 0.031109575 0.083726995
000330 db 86 ca bd 8d e3 ff bd 5e 09 b2 3d 9f 21 bb bd
       -0.09889003 -0.12494574 0.08693193 -0.09137272
000340 85 23 9d 3d b6 17 30 3c 18 e3 ed bb 5d 97 26 3d
       0.076727904 0.010747841 -0.0072597377 0.040671695
000350 b1 d2 66 bd 96 3a f8 bd 8c 51 70 3d a9 0c 36 bd
       -0.056353275 -0.121205494 0.05867152 -0.044445667
000360 ce ff a0 3d f0 b6 f4 bb 8f 4f 58 3d 91 c4 96 bd
       0.07861291 -0.007468097 0.052810248 -0.07361711
000370 0f 1b 65 bd 1e 3c 5f 3b 34 06 ce bd 5f 7c fb bd
       -0.05593401 0.0034062932 -0.10059777 -0.12279581
000380 e8 0c a8 bd ac e7 5d bd 94 85 d4 bd d7 3f 86 3c
       -0.08205587 -0.054176018 -0.103770405 0.016387863
000390 2c 22 82 bd 15 38 17 3d 4a 25 d2 3d f3 3b b3 bc
       -0.06354174 0.03691872 0.102610186 -0.021879172
0003a0 55 63 21 bd b1 20 24 be 87 ce f9 3d b1 bf 3d 3d
       -0.03940137 -0.16028096 0.12197595 0.04632539
0003b0 a4 16 9a 3d ed fd 38 3d bb b4 2f 3d 0e d7 29 3e
       0.075238496 0.045164037 0.042896967 0.16585943
0003c0 41 03 a2 bc ae 68 e3 bc 14 91 a5 bd c4 30 79 3c
       -0.019776942 -0.027759876 -0.08084312 0.015209381
0003d0 19 ef c3 3d 78 f9 57 3d 1c 6a de bd 9e 20 fe 3d
       0.09567089 0.052728146 -0.108600825 0.12408565
0003e0 d8 31 37 bd fb fd b6 bd 69 d4 3b 3d dd 8d 82 bd
       -0.04472527 -0.08935162 0.045856867 -0.063747145
0003f0 f4 1a 9f 3d 81 3a 93 3d 14 99 81 bd b2 f2 ea 3c
       0.07768813 0.07188893 -0.063280255 0.02868018

lstm.bias_ih_l0 f4 [256]
000000 ef a8 6e 3e 7c dd 38 bd 2e d3 65 3e 91 5a bb 3d
       0.2330663 -0.0451331 0.2244384 0.091481335
000010 33 23 07 3e 41 90 b2 3d 45 12 4e bc 9e 2a 13 3e
       0.13197021 0.087189205 -0.012577598 0.14371726
000020 dd cb 04 bd 5a ba 30 3e 44 80 43 bd a5 42 0b 3e
       -0.03242098 0.17258587 -0.047729746 0.13599642
000030 ed 75 dd 3d 6d 77 c7 3d 50 e1 94 3d fb 88 9a 3d
       0.10813508 0.097395755 0.072695374 0.07545658
000040 d6 cb 45 3d 21 c0 e1 bc d6 d2 d0 3d ee a6 fa 3d
       0.048290096 -0.027557435 0.10196464 0.122388706
000050 c8 40 69 bd 87 b8 63 3e f2 83 1d bd 5b 12 f7 3d
       -0.056946546 0.2223836 -0.03845591 0.12064048
000060 87 8b 10 bd a3 70 b7 bc 03 71 b0 3d dd cb c9 3d
       -0.035289314 -0.022392577 0.08615305 0.09853337
000070 f5 80 d6 3d fd ab cb 3d 46 3c 13 bd 9c 41 14 3e
       0.10473815 0.099449135 -0.035946153 0.14478153
000080 d6 56 7c bd 75 96 b1 3c 82 40 66 bc 00 07 79 3d
       -0.06160625 0.021678189 -0.014053466 0.06079769
000090 0e 6a 13 3e 50 b0 09 3e 5b 0b 0f 3e bf 71 8a bc
       0.14395925 0.13446164 0.13969176 -0.016899941
0000a0 29 f4 35 bd 35 0e 29 bd de d7 25 bb 6b 85 43 3d
       -0.044422302 -0.041273315 -0.0025305669 0.04773466
0000b0 d4 63 d3 3d 10 72 5f 3e ac 42 36 3e 6e fd 02 bd
       0.10321775 0.21820855 0.17798871 -0.03197997
0000c0 6e 06 0f 3e 5f 34 9b bd 55 fa 0b 3d d3 8f a2 3d
       0.13967296 -0.07578348 0.034174282 0.079375885
0000d0 9d 99 1b 3c c8 f0 70 3b 73 29 d1 bc d1 84 5f 3e
       0.0094970735 0.003676461 -0.02553246 0.21828009
0000e0 c8 fd 03 3d 7c 09 b3 3d 7a d8 d7 3d 29 aa 66 3e
       0.032224447 0.087420434 0.105393365 0.22525848
0000f0 e1 16 e5 3d 5f 54 0d 3e c9 23 b2 3c 36 a0 91 3c
       0.111860044 0.13801716 0.02174558 0.01777659
000100 87 46 2e be 7d d5 00 3d a7 a7 03 be 06 b9 04 3e
       -0.17019092 0.0314536 -0.12856923 0.12961206
000110 dc d3 2a bd 88 80 a8 ba da 9c fa 3d 91 16 1f be
       -0.04170595 -0.0012855688 0.12236948 -0.15535952
000120 61 03 57 3d 32 1a ae bd 3d 89 d3 3d 7f 7b 2e bd
       0.052493457 -0.0850109 0.103289105 -0.042598244
000130 6c 3a ec bd f4 2b b2 3c 53 de 88 3c a1 d3 39 3d
       -0.115345806 0.021749474 0.016707575 0.04536784
000140 81 07 ce 3d 33 31 66 3c 66 4a 04 bd 22 26 0a 3e
       0.10060025 0.014049816 -0.032297514 0.13491109
000150 82 bd 54 bc 5e c9 bb 3d a9 89 1b 3e 20 58 c7 bd
       -0.012984635 0.09169267 0.15189232 -0.097336054
000160 ee 04 1a bd f9 b3 bf 3c 4a 3f 93 bd 45 9a c6 3c
       -0.037602358 0.023401247 -0.07189806 0.024243483
000170 ad d1 86 bd f7 c6 8f bc c0 1b fa 3d 21 2a 02 3e
       -0.06582961 -0.017550929 0.12212324 0.12711383
000180 52 26 27 3e 3d 32 66 3c 1c 77 89 bc 74 55 00 be
       0.16323212 0.014050064 -0.016780429 -0.12532598
000190 9b ea 6f 3d 6f b6 e4 3d ff 64 00 3d 1d 3c 3f bc
       0.058573347 0.11167609 0.031346317 -0.011672047
0001a0 a1 f6 ce 3d 3f 8a 88 3c f6 3d 86 3d 53 bf 1c 3e
       0.101056345 0.016667483 0.06554787 0.1530736
0001b0 31 2c 18 3e 5c 9d ec 3d b4 c1 ee bd 67 03 ef 3d
       0.14860608 0.115534514 -0.1165804 0.11670571
0001c0 9a 4e 0b 3e 28 df ea 3d f7 3d c6 bd 7b bb fb 3d
       0.13604203 0.11468345 -0.096797876 0.122916184
0001d0 cc aa fd bc 13 c9 cd bc bd a4 0b bd 1f b5 44 bd
       -0.030965231 -0.025120294 -0.034092654 -0.048024293
0001e0 87 b6 92 bc 08 fd 6d 3d 81 6c f0 bc 2a a5 ac 3d
       -0.017909301 0.058102638 -0.029348614 0.0842994
0001f0 df 00 99 bc 06 bc f0 3d 2c 76 1a be 44 ef d0 3d
       -0.018677173 0.117546126 -0.15084141 0.10201886
000200 2c 80 d3 bd 39 78 65 bd 07 13 11 3d e4 50 95 bc
       -0.10327181 -0.056022856 0.035418537 -0.018227048
000210 b6 cc d5 bd 5a 85 73 bb f4 37 91 bd 2a 51 76 bd
       -0.10439436 -0.003715834 -0.0709075 -0.060135998
000220 a6 94 b4 3d 16 ad 56 ba 14 c6 73 bd 58 e6 02 3e
       0.08817415 -0.0008189244 -0.059515074 0.12783182
000230 48 29 70 3c 52 66 7d 3d df 32 23 3d 89 19 84 3c
       0.01465828 0.06186516 0.039843436 0.016125457
000240 38 7a 5a bb bb 70 09 bd 78 bc d4 3d 71 16 59 3d
       -0.0033337008 -0.033554774 0.1038751 0.052999917
000250 13 cc 02 3e 96 3a 92 3d 8a e9 9f bd 69 39 07 be
       0.1277316 0.07140081 -0.07808216 -0.13205494
000260 dc ea 8c 3d 5f 62 c6 ba 7a f9 c9 3b 3c 32 6e bd
       0.06880733 -0.0015135518 0.006163773 -0.058153376
000270 1e c6 c8 3d 9c 19 ec 3d 0a 51 aa bd 7d 6f 60 bd
       0.09803413 0.11528322 -0.08316238 -0.054793824
000280 3d 03 e5 bd df bc 54 3d 37 83 ef bd fb eb d9 bd
       -0.11182258 0.051937934 -0.11694949 -0.10640713
000290 84 a8 64 bd dd 98 f6 bd 84 f0 d6 3d 75 e1 ab bd
       -0.05582477 -0.12040875 0.104950935 -0.08392612
0002a0 e4 b8 15 3d 85 36 cb bc 9b 84 8b bc dc c2 48 bd
       0.03655328 -0.02480627 -0.017031005 -0.049013957
0002b0 b9 00 e6 bd 28 d5 cc 3c ed a6 84 bd 07 85 bb 3d
       -0.112306066 0.025003985 -0.06477151 0.09156232
0002c0 2e 1e 00 be 19 17 e5 3c 20 72 f4 3d 75 5d 49 bd
       -0.12511513 0.027965115 0.1193583 -0.049161393
0002d0 e6 f8 da 3c ce 90 22 be ad ec 81 bd 21 1b f4 3d
       0.026730012 -0.15875551 -0.063439704 0.11919237
0002e0 eb 06 8a 3d 58 d4 e7 3c a2 aa 3d 3d d8 fd b3 3b
       0.06739601 0.028299496 0.046305306 0.005492907
0002f0 f5 fe 22 bd 80 fa 13 3e 52 2e 7c bd 79 25 77 bb
       -0.039793927 0.14451027 -0.061567612 -0.0037711544
000300 94 43 81 3d 2a 40 12 3e ea 1d ea 3d fd 82 1b bb
       0.06311718 0.14282289 0.11431487 -0.0023729198
000310 dc 9b 8d 38 11 96 1f 3e 76 61 34 bd 2b 19 82 3e
       6.752435e-05 0.1558459 -0.04403826 0.25409827
000320 af cf ce 3d ed 6d 04 3c 96 1a 94 bd a1 b4 3a 3d
       0.10098206 0.008082849 -0.07231633 0.045582417
000330 4f 68 6e 3d 93 d1 c5 bd f4 88 4d 3e 5a 8a 78 3d
       0.058204945 -0.09659114 0.20071775 0.060678817
000340 5f 43 2e 3d 41 7e b5 3d 93 a1 01 bd 4f 86 55 bd
       0.04254472 0.08861972 -0.03164823 -0.05213004
000350 3a 7b ab 3d 4e 9a 93 3d 5e db 49 3d 94 6f 06 3e
       0.08373113 0.07207166 0.04928147 0.13128501
000360 73 ee 30 bd 32 ad 70 3e f2 f1 9c bd 76 9c bc bd
       -0.043196153 0.23503569 -0.07663335 -0.0920953
000370 01 a7 1a 3c ed fc 08 3e 7b c5 90 bd e1 ed ff 3d
       0.009439231 0.13377734 -0.070689164 0.12496544
000380 fb 2d 23 3e 97 7a 31 3e 13 c1 2d 3e c6 c7 10 3e
       0.15935509 0.1733192 0.16968183 0.14138708
000390 4a d9 98 bd 87 bf 88 3d 28 81 14 3e 38 cf b6 3c
       -0.074633196 0.06677156 0.14502394 0.022315606
0003a0 90 b5 91 bd 15 37 04 3e 0c 82 86 3d d7 72 fd 3d
       -0.071147084 0.12911637 0.06567773 0.123754196
0003b0 e3 fa d2 3c be ef 62 bb ef dd 44 3e a6 70 5b bd
       0.025754398 -0.003462776 0.19225286 -0.053574227
0003c0 05 c5 82 bd 07 a9 32 3e 4b 33 c9 bc 69 ef 05 3e
       -0.06385235 0.17447291 -0.024560591 0.13079609
0003d0 09 f8 e3 3d 06 1c a2 3c 4c b1 d6 3a 9a 37 5a 3e
       0.11131293 0.019788753 0.0016379743 0.21310273
0003e0 02 70 b3 3d c7 fd cc 3d 0d e8 68 3c 45 1a 61 3d
       0.08761598 0.10009342 0.0142154815 0.054956693
0003f0 a8 96 60 3d a9 7e aa bd d6 a0 02 3e a7 86 37 3d
       0.054831177 -0.0832494 0.12756667 0.04480615

lstm.bias_hh_l0 f4 [256]
000000 ea a7 2e 3e b0 31 51 3d 88 78 9d 3d af 59 56 bd
       0.17056242 0.051072776 0.07689005 -0.052331623
000010 1d 7b 43 3d f1 7d 33 3e ed 46 75 3d f0 e0 22 3e
       0.04772483 0.17528512 0.059882093 0.1590612
000020 21 f1 7a bd a4 51 79 3d 38 91 e6 3c 61 0c a8 3d
       -0.061265115 0.060868874 0.028145418 0.08205486
000030 22 bd 08 3d 8f 7a a1 3d 84 b8 3b 3e 4f 7b ed bc
       0.033383496 0.07884704 0.18332106 -0.028989462
000040 a9 52 a8 3d f1 f7 cf 3d ab d6 c0 3d 17 2d 76 bd
       0.08218891 0.10154713 0.09415945 -0.060101595
000050 ba e6 eb 3d c2 b3 d1 3d 47 b1 aa 3c 33 c5 29 3e
       0.11518617 0.10239364 0.020836486 0.16579132
000060 ff f6 ad bb 9c fa 30 3e f0 7a 8a 3c c0 e2 9d bd
       -0.0053089852 0.172831 0.016904324 -0.07709265
000070 dc fc 86 bc 70 9a 82 3d 10 83 83 bd 30 19 32 3e
       -0.016477995 0.06377113 -0.064214826 0.17392421
000080 5c 0f 16 3e 54 6d 06 3e 0c f1 83 bd d0 1b b0 3d
       0.14654297 0.13127643 -0.064424604 0.08599055
000090 4c 78 08 3e 14 5d 81 3d 58 a6 ae 3d 5f ae b0 3c
       0.1332714 0.06316581 0.08527821 0.021567522
0000a0 4b 8d 13 bd 0a 1a 3e bd 6f ff f3 3d 31 e3 1a 3c
       -0.03602342 -0.04641155 0.119139545 0.009453581
0000b0 b3 fb d9 3b 85 7a 26 3e 1b a1 f7 3c 09 ad 55 3d
       0.0066523193 0.16257675 0.030228188 0.052166972
0000c0 cf 67 0b 3e a8 ea 6d 3d 40 48 9e 3d f3 a5 3b 3b
       0.13613819 0.058085114 0.07728624 0.002863285
0000d0 a2 bd bc 3d 37 1c d1 bc c5 5b 1a 3e ac 5e e5 3d
       0.09215857 -0.02552615 0.1507407 0.11199698
0000e0 ff 3d a9 3c dd 6a 12 3d 90 04 1c 3e 54 44 69 3e
       0.020659445 0.035746444 0.15236115 0.22779971
0000f0 db 42 f2 3d 48 38 f0 3d 1f a6 d1 3d ef 94 98 3d
       0.11829158 0.11729485 0.10236763 0.07450282
000100 84 d3 f8 3c 61 05 0a 3d 0f dc cb bc c5 d8 f6 3d
       0.030374296 0.033696536 -0.024885206 0.12053064
000110 ec 59 e0 3c a5 8c ad bd b1 b2 f7 3c 34 9b 22 bd
       0.027386628 -0.084740914 0.030236574 -0.039698794
000120 83 ce 3b bc 8a d4 11 3e d9 ea 18 3e 08 0d fc bd
       -0.01146281 0.14241233 0.14933337 -0.12307173
000130 3d 69 5b bd a4 84 4e bc 3e 17 a3 3d 2d 20 d1 bc
       -0.05356716 -0.012604866 0.079634175 -0.025528038
000140 47 c8 d2 3b ba 53 b2 bb 1e d5 55 bd 86 d1 c1 bd
       0.0064325663 -0.00544211 -0.052205198 -0.094637915
000150 68 fd 96 bd cb b5 0a 3c 6d db 01 3e cb 2b 8d 3c
       -0.07372552 0.008466194 0.1268136 0.017232796
000160 e8 d5 e8 3d 95 79 d1 bb 79 9f f8 3d b3 1d 94 bc
       0.113689244 -0.0063926675 0.12139792 -0.018080568
000170 7b 57 ab bd 17 21 71 3d dd a3 c3 bd ad 35 f6 3d
       -0.08366295 0.058869448 -0.09552739 0.120219566
000180 e7 c0 85 3d a2 6f c8 3d a8 fa ab 3d 8f 55 7d 3d
       0.06530934 0.09786917 0.08397418 0.061849173
000190 eb e5 19 bd 5a 58 d5 bd c6 0c 64 3d 4a 05 c1 bc
       -0.037572782 -0.10417242 0.055676244 -0.023562092
0001a0 84 71 b2 3c 80 04 f7 3d 79 2a 7a 3d 1c 04 4e 3d
       0.021782644 0.12061405 0.06107566 0.050296888
0001b0 1a d2 99 bd c9 b4 59 bb 8f c6 d4 bd 04 79 83 3d
       -0.07510777 -0.0033219329 -0.103894345 0.06419566
0001c0 10 8a f6 3d dd 7d cf bb 39 a3 83 3d 01 e2 95 3d
       0.12038052 -0.0063321427 0.064276166 0.073184974
0001d0 af 58 e3 3d 16 ed 9e 3d ab b8 98 bd c7 87 0f 3c
       0.111008994 0.07760064 -0.074570976 0.008760399
0001e0 aa 03 56 3c 36 3f fe 3b 93 f7 8c bd 2b 0b 9d bd
       0.013062397 0.007759 -0.068831585 -0.07668146
0001f0 dd f8 e2 3d c2 10 17 bd a2 27 4a bd 57 2d ca 3d
       0.11082623 -0.036881216 -0.049354203 0.09871929
000200 47 9d 64 3d 42 dc 9f 3d 85 e8 7c 3d 88 72 f2 3d
       0.055814054 0.07805683 0.061745185 0.11838251
000210 54 06 20 3b bf bf 52 bd a1 20 9b 3d cc 53 09 3b
       0.0024417834 -0.051452395 0.07574583 0.0020954488
000220 13 b3 0c 3e 10 81 d7 bd d5 d9 c6 bd 02 1b df 3d
       0.13740186 -0.105226636 -0.09709517 0.10893823
000230 04 39 a9 bd c4 c6 22 3d 26 69 c1 bd 78 b8 34 3d
       -0.08262828 0.03974034 -0.094438836 0.044121236
000240 14 d8 19 3e 33 1d 92 3d ff d7 a3 bd b9 30 9c 3d
       0.15023834 0.071344756 -0.08000182 0.076264806
000250 f7 73 a4 3c 39 69 ee bc 6e bc 46 be 28 4a cb bd
       0.020074828 -0.029102908 -0.19407818 -0.099262536
000260 de 43 c5 bc d0 8f f4 3d 0e 9a d6 bd c5 af 04 be
       -0.024080213 0.119414926 -0.10478602 -0.12957676
000270 83 ba bb bd 0e 07 10 3d 9d c3 f6 bd ab 9d 19 be
       -0.09166434 0.035162978 -0.12049029 -0.15001552
000280 11 df 7a bc 68 80 01 be e7 61 d6 ba 4e c2 bf bc
       -0.015311972 -0.1264664 -0.0016356081 -0.023408081
000290 8c e7 18 3e 13 74 87 bd 86 58 db bd c7 22 d3 bd
       0.14932078 -0.06613936 -0.10710244 -0.103093676
0002a0 2a ee 40 bd cb 0f 25 bd ac 75 12 3e 1b 3c e6 bd
       -0.04710213 -0.040298264 0.14302701 -0.11241933
0002b0 cd 33 06 be a8 b9 32 3d a9 99 36 bd 18 06 07 3e
       -0.13105698 0.043634087 -0.044580135 0.13185918
0002c0 41 47 18 3b ee af 52 3d fa 41 dc 3d e5 f4 d5 bc
       0.002323583 0.05143731 0.107547715 -0.026117751
0002d0 4a cb 57 bd 16 8f a4 bd 07 a6 38 bd d3 a5 c4 bd
       -0.052684106 -0.08035104 -0.04508021 -0.09601941
0002e0 8f 20 f7 3d e4 58 17 3d fe cc 52 bd 75 52 04 3e
       0.12066757 0.036950007 -0.051465027 0.1292208
0002f0 ce c1 81 3d ba cb a0 3d e0 95 6b 3d 37 05 d5 3c
       0.063357934 0.07851358 0.05751598 0.026003463
000300 38 95 17 3e 02 81 10 3e c5 cc 47 3e 73 f8 02 3e
       0.14803016 0.14111713 0.19511707 0.12790088
000310 d8 6c 17 3e 30 c3 31 3d 36 47 b1 3c 5e b0 79 3e
       0.14787614 0.043399036 0.021640401 0.24383685
000320 e4 5b 58 bc 6a 74 48 3d fa bc 3e bc 92 53 b0 bd
       -0.013205502 0.048939146 -0.011641735 -0.0860969
000330 28 8a 52 3e 1d c0 cb 3d 55 bf 5b 3d 32 df ee bc
       0.20560515 0.09948752 0.053649265 -0.029159162
000340 6b 4e 3c 3d 2f 61 a9 3d b7 a5 09 3e cf 36 10 3d
       0.045973223 0.082704894 0.13442121 0.03520852
000350 31 e7 b2 3c 20 8a 84 3e ce cd 17 3e ae e7 51 3e
       0.021838756 0.2588663 0.14824602 0.20498535
000360 35 07 e6 3d 84 eb f9 ba 82 75 b0 3d 80 23 ad 3d
       0.112318434 -0.0019067382 0.08616163 0.08454037
000370 b3 cc 33 3e 97 7d 44 3c b0 8d 86 3d 35 6d 59 bd
       0.17558555 0.011992834 0.065699935 -0.053082664
000380 44 77 0d 3e d6 28 85 3d 63 95 0f 3e ba 3d 1f 3e
       0.13815027 0.065019295 0.1402183 0.1555089
000390 f5 83 b2 bc f7 da d7 3d ba 4f 32 3e 82 af 0d bd
       -0.021791438 0.10539811 0.17413226 -0.034591205
0003a0 c4 a8 48 3d 85 43 02 bd 77 07 43 bd 37 bb b3 3d
       0.048989072 -0.031802673 -0.04761454 0.08775943
0003b0 6b 83 85 bd 8e a4 1f 3e c6 d1 14 bc ba 22 83 3d
       -0.065192066 0.15590116 -0.009083217 0.06403108
0003c0 1e 4d 9f bc b6 d1 f4 3d 6a fc 02 3e 31 f8 fc bc
       -0.019445952 0.11954062 0.12791601 -0.030880066
0003d0 97 18 28 3a a2 75 68 3c 94 f4 a9 bd 94 09 3f 3d
       0.00064123556 0.014188202 -0.08298603 0.046639994
0003e0 29 82 61 3d 6c 55 ad 3c 55 41 26 3e c7 7f 26 3e
       0.05505577 0.021158896 0.1623586 0.1625968
0003f0 80 73 78 3e b7 93 77 bd 86 fe ca 3d 48 88 ec 3d
       0.2426281 -0.060443606 0.09911828 0.11549431
